waist_model.pt (torch, 738315 bytes, 31 tensors)

network.0.weight f4 [512, 5]
000000 7c 5a af 3e 88 ab b7 3e 34 e2 aa bd 57 b1 e2 3e
       0.34248722 0.35873055 -0.08343926 0.44275925
000010 82 26 ab bd 66 7c c9 3d be fe 64 be 93 3d 87 3e
       -0.08356954 0.0983818 -0.22362801 0.26414165
000020 6a b4 d5 3e b0 97 9d be a6 b6 cc 3e 41 96 a0 3d
       0.41739208 -0.3077979 0.399831 0.07841159
000030 bf cb a2 3e 85 57 9b 3d 8f f0 5a 3e a4 8d 78 bd
       0.3179607 0.075850524 0.21380828 -0.060681954
000040 43 68 ae 3e d6 22 8a 3d 10 8d 5a be 6b 3f f4 3d
       0.3406392 0.06744926 -0.21342874 0.119261585
000050 66 4c 48 be 5b 8b 1c bd 0e 67 42 be a3 95 9c 3e
       -0.19560394 -0.038218837 -0.18984625 0.30582914
000060 8e da b1 be 05 ea 5d be 38 e9 06 be d8 37 85 be
       -0.34737056 -0.21671303 -0.13174903 -0.26019168
000070 9b 15 9a 3c de 56 e0 be b2 15 d8 3e d2 cd ba be
       0.01880913 -0.43816274 0.42204052 -0.36485153
000080 06 b2 aa 3e 30 03 ba 3d 03 5e 13 be 36 3e 8f 3e
       0.33338946 0.09082639 -0.14391331 0.2797715
000090 68 f5 89 3d fa 86 b6 3e 23 af 76 3d 09 4c 17 be
       0.06736261 0.35649854 0.060225617 -0.14775099
0000a0 8d 92 d2 3d fe 15 17 be fd 86 40 3e 1f 45 c4 3e
       0.102818586 -0.14754483 0.18801494 0.38333985
0000b0 59 aa 8b 3e ee b7 4c be 2e 14 84 3e 49 50 85 3d
       0.27278402 -0.19992039 0.25796646 0.06509454
0000c0 f9 c4 60 3e 73 12 90 be af 56 ed be b2 64 41 be
       0.21950139 -0.28139076 -0.46355197 -0.18886068
0000d0 ab b4 ab be cc 93 b1 3e c2 a9 00 3e 0e 17 3c 3e
       -0.33536276 0.34683073 0.12564757 0.1836817
0000e0 d5 36 13 3e bf c3 0b bd d6 15 b2 3e 28 6d a3 be
       0.14376386 -0.034122225 0.34782284 -0.31919217
0000f0 82 4c 19 3c c2 f9 9f be 49 3c f5 3d 3c 43 39 be
       0.00935662 -0.31245238 0.11974389 -0.18092054
000100 32 fc ef 3d b4 48 c5 bd 1e 02 be 3e a4 9e 87 be
       0.11718024 -0.09633008 0.3711099 -0.2648822
000110 9d dd 8a be 40 5c 7d be b7 d6 d1 3e 1d 0a 17 3e
       -0.27122203 -0.24742222 0.40984127 0.14749952
000120 e6 0e dc 3e 21 12 ba be 52 89 de be 72 49 b2 be
       0.42980117 -0.36341956 -0.43464142 -0.3482166
000130 4d 46 9a be 34 2a 3a 3e 07 ca 22 3e 8b ca bf 3e
       -0.3013176 0.18180162 0.1589738 0.37459216
000140 ea 9d 77 be ae b6 9a be 2c 3a 6e 3e 3f 25 43 be
       -0.24181333 -0.302175 0.23264378 -0.19057177
000150 07 65 87 3e 04 02 eb bd be 4f 83 3e 50 ed a1 be
       0.26444265 -0.11474994 0.25646776 -0.31626368
000160 ce aa 78 be fd bd ed 3d 66 0a be 3d cd fb cc bd
       -0.24283907 0.11608503 0.09279327 -0.10008965
000170 38 c2 85 3e 5e 8a a0 3e 31 c4 a7 be 78 04 7c be
       0.2612474 0.31355566 -0.3276687 -0.2461108
000180 a4 78 d3 3e 10 88 ff bd c7 be 28 be 1a 98 d3 be
       0.4130298 -0.12477124 -0.16479026 -0.41326982
000190 a6 83 76 be 03 1b 06 3e cf 2f 52 bd 1c 48 ab be
       -0.24073657 0.13096242 -0.051315125 -0.33453453
0001a0 74 e0 b4 3c b4 a5 9f be 2d 70 c4 be 02 3a 6f be
       0.022079684 -0.3118111 -0.38366833 -0.23361972
0001b0 29 e3 d3 be 54 00 90 be c4 ed ef 3e 36 b8 b6 3d
       -0.41384247 -0.2812525 0.46861088 0.08921854
0001c0 38 c3 0f 3e c7 b6 cb be 0e 0c 8d be 44 07 07 be
       0.14039314 -0.39787886 -0.2754826 -0.13186365
0001d0 15 a8 a5 3d 19 e5 d0 be db 75 34 be 97 fc 90 be
       0.080887 -0.40799788 -0.17623083 -0.2831771
0001e0 05 a5 8c 3c dc 4c 27 be c6 7d 27 bd 59 db a6 be
       0.017168531 -0.16337913 -0.04089143 -0.32589224
0001f0 af 93 95 be 06 d8 8b be b4 7a 28 be 38 cd b0 be
       -0.29214236 -0.2731325 -0.16453058 -0.3453157
000200 94 ad b9 3e ab d8 aa bd 2c 71 c0 3e 0d 80 f0 3d
       0.36265242 -0.083421074 0.37586343 0.11743174
000210 fb bf c3 be 19 b2 a3 3e 5e 07 f0 bd f3 ea 42 be
       -0.38232407 0.31971815 -0.11720155 -0.19034939
000220 df 93 c5 be 75 47 db be a9 1a d2 3d 38 3d cd bd
       -0.3858938 -0.42827955 0.10258991 -0.10021442
000230 74 a4 57 3e 44 65 ae be ac 0e af 3e 28 1d a2 be
       0.21058828 -0.34061635 0.3419088 -0.3166287
000240 cf f1 8b bd 92 d2 ca 3d 40 c2 6f 3e cc 9b b4 3e
       -0.06833231 0.09903444 0.23413944 0.35275114
000250 b2 0f de 3e ab c4 af be ee 56 ed 3d da 31 40 be
       0.4337135 -0.34329733 0.11588846 -0.18769017
000260 88 42 88 bd 8a e2 b1 be 69 ed c9 3e 94 7f ae be
       -0.06653315 -0.34743148 0.39438942 -0.3408171
000270 98 40 66 3e bd 60 2a 3e 23 4c 05 3e 14 ef 70 be
       0.22485578 0.16638465 0.13017325 -0.23528701
000280 6b e9 cf 3e e1 4d c1 3d 47 cd 74 3d d1 31 c8 be
       0.4060777 0.09438682 0.05976608 -0.39100507
000290 d3 db 48 3e 04 cc 90 bd 61 aa 53 be 53 00 c1 3e
       0.19615106 -0.07070163 -0.20670463 0.3769556
0002a0 94 78 c2 3d 6d 44 83 be b1 a2 81 be 0a c0 2f bd
       0.09495655 -0.25638142 -0.25319436 -0.042907752
0002b0 89 54 77 3e 45 dc 0c be 5e 7d 6d be af 7a 1b be
       0.24153341 -0.13755901 -0.23192355 -0.15183519
0002c0 65 df a7 be 9d 30 23 3e 0d 80 b1 3e 5a 78 dd be
       -0.32787624 0.15936513 0.34668007 -0.43255883
0002d0 09 e1 ed 3d e1 82 73 3e 7e ad 9f 3d c0 cb 17 be
       0.11615188 0.23780395 0.07796763 -0.14823818
0002e0 0a 0f 67 3e a0 16 70 3e e5 e7 2a 3e be 48 d7 bd
       0.2256433 0.23446131 0.16690023 -0.10511921
0002f0 d9 25 e0 bd e6 1c 35 3d 8e 5a a2 bd af fe 07 be
       -0.10944719 0.044217013 -0.07927428 -0.13280748
000300 50 62 8c 3e 41 eb c7 3e c2 c8 14 bd 2e 02 f9 bd
       0.27418756 0.39046672 -0.03632427 -0.12158619
000310 63 e4 7a 3c 47 50 2b bd 48 ad d0 3d 03 48 a8 3d
       0.015313241 -0.041824605 0.10189301 0.0821686
000320 27 20 dd be b7 f7 32 be de ac b6 3e 18 b0 13 3e
       -0.43188593 -0.17477308 0.35678762 0.14422643
000330 3c e1 27 bd 43 68 8a be 6d b9 8b be 99 2e c9 be
       -0.040986285 -0.2703267 -0.27289906 -0.39293364
000340 7d 19 2f be 00 cb 15 3e d2 30 99 3e 6b 7a 57 3e
       -0.17099567 0.1462822 0.2992006 0.21042792
000350 16 75 c6 be 41 f8 82 be 9d 56 87 bd 83 93 db 3e
       -0.38761204 -0.25580028 -0.06608317 0.4288598
000360 b7 92 57 3d 32 0f ee bd 4e a2 54 3e c7 c0 24 be
       0.052630153 -0.11623992 0.2076504 -0.16089164
000370 4b 29 99 be 1f 85 a6 3e f7 7c 3f be 45 db c9 bd
       -0.29914317 0.32523438 -0.18700014 -0.098562755
000380 02 0d e0 be 63 53 9e 3e b9 64 b1 3e 1b 36 2f 3e
       -0.43759924 0.30922994 0.34647158 0.17110483
000390 ab 54 9a be 52 27 de be bb 80 b4 be cb ab b3 3e
       -0.30142722 -0.43389374 -0.35254464 0.35092005
0003a0 18 d4 36 3e 1d e6 c7 3e 36 f3 68 3e 44 1d df 3d
       0.17854345 0.3904275 0.22749028 0.10894254
0003b0 a4 ec 71 bb 22 94 a0 be 5d 6d ca be 1d f7 d5 be
       -0.003691473 -0.31363016 -0.39536563 -0.41790095
0003c0 a9 4c 35 3e 75 61 5b be 7d 67 a9 bd 38 e3 89 be
       0.17705025 -0.21423896 -0.08271692 -0.26931167
0003d0 30 cc c0 bd 00 74 a8 be 2b fc 92 be 0c 42 11 3e
       -0.09413946 -0.32901 -0.28708014 0.14185351
0003e0 f3 08 24 be a2 d3 85 3e 31 5e f8 bd 18 3c 9f be
       -0.16019039 0.26138026 -0.121273406 -0.31100535
0003f0 e4 08 c8 bd 53 52 70 be 46 b6 1b be d8 bb d9 be
       -0.09767321 -0.23468904 -0.1520625 -0.42526126

network.0.bias f4 [512]
000000 0f ce 66 be ab 19 a0 3e 29 a1 97 3e 90 f5 92 3d
       -0.22539543 0.31269583 0.29615143 0.071757436
000010 0f a2 52 be 09 fd c1 3d 54 94 9a 3a b6 31 d1 3e
       -0.20569633 0.09472091 0.0011793473 0.4085824
000020 b6 d8 87 3d 0c 40 0d 3d e9 0c f9 3c 93 91 73 3e
       0.06633131 0.034484908 0.030401664 0.23786001
000030 98 3c b7 bb 3a 37 c4 3e 3b 84 6e 3e 7f ee ac be
       -0.00559194 0.38323385 0.2329263 -0.33775708
000040 1e d9 89 b8 e0 5d c2 be f0 e1 af be 52 4e b2 3d
       -6.57311e-05 -0.37962246 -0.34352064 0.08706345
000050 e2 04 ce 3d 87 72 20 bd 3b a2 d9 3e 46 e6 75 be
       0.10059525 -0.03917172 0.42506585 -0.24013624
000060 12 d4 3f be b0 47 92 bd e1 3c 31 3b a3 15 1b bd
       -0.18733242 -0.071425796 0.0027044343 -0.03786243
000070 0d 3a ce 3e 07 51 41 be ce a4 6f be 21 6b 1c 3d
       0.40278664 -0.18878566 -0.23402712 0.038188104
000080 1e e0 ab 3e c9 16 d9 3d 4c cc 76 3e ca 73 b1 3d
       0.33569425 0.10600049 0.2410137 0.08664663
000090 96 44 c3 3e 7c 7d 89 3e 13 d1 a3 3e c2 7d 75 bd
       0.38138264 0.2685355 0.31995448 -0.059934385
0000a0 b5 8a bd be 00 2a 59 be a0 fd 1b 3e c3 a5 a0 3e
       -0.37019888 -0.21207428 0.15233469 0.31376466
0000b0 b3 ce 32 be 23 79 bd 3e fa 8c 83 3d 68 07 ea 3a
       -0.17461662 0.37006482 0.064233735 0.001785499
0000c0 4b 8c 8e 3c f1 a5 a1 bd d1 56 d6 3e 4b 70 9d 3c
       0.017400881 -0.07892979 0.4186311 0.019218585
0000d0 4e 37 8c 3e 6d 32 c1 be 01 ff 6b be a6 b8 4d 3d
       0.27385944 -0.37733784 -0.23046495 0.050224923
0000e0 16 ce b6 3e 96 0f 5a 3e 59 60 ae 3d 9c 3e e2 be
       0.35704106 0.21295008 0.085144706 -0.44188392
0000f0 ae c1 0a 3c 4c 40 97 be a8 92 c3 be e6 86 7a 3d
       0.008469028 -0.29541242 -0.38197827 0.061163805
000100 ae e1 90 be bb c8 cf 3e 23 19 79 be 33 86 13 3e
       -0.2829718 0.40582833 -0.24325995 0.14406662
000110 dc 5e 86 3e bf 08 b2 be 2a 53 6a 3e 4c 8d 75 bd
       0.26244247 -0.34772298 0.22883287 -0.059949204
000120 8d 55 6d 3e 47 88 dd 3e 4f 33 43 be 4d 53 46 be
       0.23177166 0.43268034 -0.19062541 -0.19367714
000130 e5 e7 b5 3e ca db 4c 3d d7 13 37 bd 53 cf ad 3e
       0.35528484 0.050014295 -0.044696655 0.33947238
000140 5a 44 5d be 3f c7 b4 bc c0 47 9d 3e 83 f2 32 3e
       -0.21608105 -0.022067664 0.30718803 0.17475323
000150 72 10 94 be 77 0b ee 3d 31 99 ae be 1f a7 78 be
       -0.28918797 0.116232805 -0.3410125 -0.24282502
000160 2d 39 93 3e a4 20 f4 bd 39 56 69 be e6 56 02 3d
       0.2875456 -0.11920288 -0.22786798 0.031821154
000170 37 b6 df 3d f0 71 8e be 42 5b 9a be 47 c4 dd be
       0.109234266 -0.27821302 -0.3014775 -0.4331381
000180 c2 e8 ec 3d a8 b4 93 be f5 b8 0b 3d 29 53 cc bd
       0.115678325 -0.28848767 0.034111936 -0.09976799
000190 0b a4 95 be bf 32 12 be b5 fb af be 3e 56 72 be
       -0.29226717 -0.1427717 -0.34371725 -0.23665711
0001a0 88 af 63 bc 9b dc c3 be bc c5 c8 be c8 7a ab 3e
       -0.01389683 -0.38254246 -0.3921336 0.33492112
0001b0 ef ef 2b 3d 28 9c 4a be ef 9f 75 bc b8 d1 a9 3e
       0.041976865 -0.19786131 -0.014991744 0.33167815
0001c0 81 05 bf be 2d d5 72 be 48 8b a5 be 78 86 05 bd
       -0.37308887 -0.23714133 -0.32332826 -0.032598943
0001d0 e3 92 7b bc 88 7b b2 be 76 ed 9e 3e da e6 af be
       -0.015354845 -0.34859872 0.31040543 -0.34355813
0001e0 67 c5 d5 3e 4d a1 9d be 88 29 7b bd 07 66 ab 3d
       0.4175217 -0.30787125 -0.061318904 0.083690695
0001f0 1e 92 4b be 83 d0 d2 3e 32 b2 9d be 4a 18 cb bc
       -0.19879958 0.41174707 -0.30800015 -0.024791855
000200 f4 2d a8 be 2e 46 fe 3d 78 3e c3 3e b4 41 d4 3e
       -0.3284756 0.124157295 0.38133597 0.41456378
000210 10 0f 59 3d 5f 66 65 be d8 84 de 3e fb 73 08 3d
       0.05299288 -0.22402333 0.43460727 0.033313733
000220 32 f1 9a 3e aa e2 6d be 7a 88 54 be 59 1c be be
       0.30262142 -0.23230997 -0.20755187 -0.37131003
000230 27 a2 d2 3e 64 e4 97 3d bf 66 a4 be 03 86 1d 3d
       0.41139337 0.07416609 -0.3210964 0.03845788
000240 b9 6b 44 be 39 92 b7 3c ec 1c 18 3e f7 86 63 be
       -0.19181718 0.022408592 0.14854783 -0.22219454
000250 0d dd 9f 3d 94 aa 90 be 9c 95 b0 3d c6 16 dd be
       0.07805834 -0.2825514 0.08622286 -0.43181437
000260 09 c8 91 3d a0 61 e3 3e f8 df d2 3e 0c 0e 27 3e
       0.07118232 0.4441042 0.411865 0.16313952
000270 43 71 a8 3e ea b1 de 3e da f7 01 3e 31 c1 18 3e
       0.32898912 0.43495113 0.12692204 0.14917447
000280 04 29 6e 3d 71 d9 ca 3e 6a d5 c4 3e 9f 50 57 be
       0.058144584 0.3961902 0.38444072 -0.21026848
000290 0d e1 96 bc 7a 9d 66 be 6c 49 24 3e fb f2 dd be
       -0.01841786 -0.2252101 0.16043633 -0.43349442
0002a0 da 07 22 3e 8b 80 fb bd 19 04 26 3e 91 f5 0e 3e
       0.15823308 -0.12280377 0.162125 0.13960864
0002b0 27 ca 63 be c6 80 6d 3e 89 4b 42 3e ee a2 c2 be
       -0.22245084 0.23193654 0.18974127 -0.3801493
0002c0 d6 82 e4 3e b3 1f c5 3e 3a 6b 8e 3e 00 84 39 bd
       0.4463107 0.38500747 0.27816182 -0.0452919
0002d0 b3 30 22 3e ab c2 77 be e1 96 1b be 40 09 58 3e
       0.1583889 -0.24195354 -0.15194274 0.21097279
0002e0 09 19 4c 3e c6 66 35 3e 64 4c da be ed 9f bd 3e
       0.19931425 0.17714986 -0.42636406 0.37036076
0002f0 0f 45 3f be 4b 23 c6 3e a8 b1 bc 3e f4 85 29 3e
       -0.18678688 0.386988 0.3685429 0.16555005
000300 b4 1c e4 3e 22 7e 83 3e 93 35 86 3e 5d 8d 1b be
       0.4455315 0.2568217 0.2621275 -0.15190645
000310 6d 3e d4 3e 4d 69 f0 3d 1e 32 87 3e cb 6f cf bd
       0.41453877 0.117388345 0.26405424 -0.10128745
000320 d2 cb a5 3e 53 19 cb 3e 79 80 af be a5 aa bb 3e
       0.32382065 0.39667758 -0.34277704 0.3665363
000330 fd 51 97 be f0 ad 9d be c2 49 bf be f9 56 04 3e
       -0.2955474 -0.30796766 -0.3736096 0.12923802
000340 5f db ab be 13 29 2c be 22 89 66 be ed ae f4 3d
       -0.33565804 -0.16812544 -0.2251325 0.11947427
000350 e9 c2 e0 be 73 d9 51 be 14 c1 50 3b 6b 21 25 3d
       -0.43898705 -0.20493107 0.0031853365 0.040315073
000360 73 c1 4e be 23 20 24 3e 07 1f 97 be 37 ea c1 be
       -0.20190983 0.16027884 -0.2951586 -0.37874004
000370 3f 7f 82 bd 61 69 77 be ed 64 90 3e 37 7f 9c be
       -0.063719265 -0.24161293 0.28202 -0.30565807
000380 8c 8d 19 bd 82 16 3e 3e 0a 74 c8 be 49 2a b1 3e
       -0.037488505 0.18563274 -0.3915103 0.34602574
000390 aa 58 50 be 1e 2c f9 bd 06 20 8c be 36 ad 2a be
       -0.20346323 -0.12166618 -0.27368182 -0.16667637
0003a0 e9 91 30 be 03 c4 cb be b5 88 1c 3e 5d fc c5 ba
       -0.1724316 -0.39797983 0.15286525 -0.0015105117
0003b0 f4 f0 df 3e ff 81 9a 3e 0f 4e c7 3e bc aa 06 3e
       0.4373852 0.30177304 0.3892674 0.13151067
0003c0 2e e2 70 3e 53 90 d6 3e ac fd bb 3e d9 f0 af be
       0.2352378 0.41906986 0.36716974 -0.3436344
0003d0 d9 44 cd bd f7 d5 dc be 2e d4 89 3c 2a b8 21 be
       -0.10022897 -0.43131992 0.016824808 -0.1579291
0003e0 51 ba c6 3e 92 da 90 3d 6d 10 a1 3b 20 bc a5 be
       0.38814023 0.07072939 0.004915288 -0.3237009
0003f0 5b bd b3 be ad 0b 90 3d cc 99 63 be 70 54 52 be
       -0.35105404 0.07033477 -0.22226638 -0.20540023

network.1.weight f4 [512]
000000 50 fc 7d 3f 60 ad 7b 3f f8 32 7f 3f d7 3a 80 3f
       0.99213123 0.98311424 0.9968715 1.0017956
000010 1f b7 7e 3f 69 7d 80 3f 25 83 7c 3f ed 8d 80 3f
       0.9949817 1.0038272 0.9863761 1.0043312
000020 68 fd 7f 3f d7 8a 80 3f 34 e4 7c 3f 05 ee 80 3f
       0.9999604 1.004237 0.9878571 1.0072638
000030 f1 1d 81 3f e4 44 7e 3f 4f 00 7e 3f 76 63 7f 3f
       1.0087262 0.9932387 0.9921922 0.9976114
000040 d9 3d 7c 3f 27 2f 7d 3f 5e c3 7d 3f 2d ee 7e 3f
       0.9853187 0.98900074 0.9912623 0.9958218
000050 77 46 81 3f fb 4e 7f 3f 13 40 7e 3f 5c 2a 7d 3f
       1.0099629 0.9972989 0.9931652 0.9889276
000060 52 9f 80 3f b6 1d 81 3f bd d1 7f 3f 7f 53 80 3f
       1.0048621 1.0087192 0.9992941 1.0025481
000070 9f f1 80 3f 72 4e 7e 3f cf 5d 81 3f e5 cf 80 3f
       1.0073737 0.9933845 1.0106753 1.0063444
000080 5f 01 81 3f 8c 6b 81 3f 36 a3 80 3f fb 7c 7a 3f
       1.0078543 1.0110946 1.0049808 0.97846955
000090 85 8e 80 3f 56 5b 7f 3f 3a 43 80 3f 7a d4 81 3f
       1.0043494 0.9974874 1.0020516 1.0142968
0000a0 a2 56 7c 3f 6e 92 80 3f 07 13 80 3f 99 dd 80 3f
       0.9856969 1.0044687 1.0005807 1.0067626
0000b0 f5 46 7d 3f 06 35 7f 3f e3 c2 7c 3f 0a c3 80 3f
       0.98936397 0.9969028 0.98734874 1.0059521
0000c0 68 a3 7d 3f 10 d3 80 3f 27 9a 7c 3f e8 e0 81 3f
       0.99077463 1.0064411 0.9867272 1.0146761
0000d0 17 76 7e 3f 8e 91 7c 3f 82 31 7d 3f f9 07 7d 3f
       0.9939894 0.986596 0.9890367 0.9884029
0000e0 ec 9b 81 3f 5f b7 7e 3f 3c c7 7e 3f d3 13 81 3f
       1.0125709 0.9949855 0.9952276 1.0084175
0000f0 ac 53 80 3f 4e 53 80 3f 47 78 82 3f b9 43 7f 3f
       1.0025535 1.0025423 1.0192956 0.9971271
000100 59 59 7f 3f 61 98 7c 3f 0b f4 7f 3f c7 38 81 3f
       0.9974571 0.9867001 0.99981755 1.0095452
000110 2f c1 80 3f f6 e8 80 3f 42 e7 7d 3f 97 77 80 3f
       1.0058955 1.0071094 0.99180996 1.0036496
000120 3d 92 7e 3f 0b 33 80 3f ef 54 80 3f 42 6b 80 3f
       0.9944189 1.0015577 1.002592 1.0032732
000130 50 a6 7d 3f 88 3a 80 3f db 66 7f 3f c7 cf 7f 3f
       0.990819 1.0017862 0.9976632 0.9992642
000140 9d 03 80 3f b6 e6 80 3f 5b e7 7e 3f e1 3c 80 3f
       1.0001103 1.0070407 0.9957177 1.0018579
000150 4a 81 80 3f f5 74 7e 3f c2 64 80 3f cc e0 7e 3f
       1.0039456 0.9939721 1.0030749 0.9956176
000160 41 86 7e 3f a1 2e 7e 3f e6 4b 7c 3f f0 26 7f 3f
       0.99423605 0.992899 0.9855331 0.9966879
000170 f1 89 80 3f 70 20 82 3f d1 7e 7d 3f 8f 5c 7d 3f
       1.0042096 1.0166149 0.9902163 0.9896936
000180 4a 39 81 3f 00 6b 7b 3f 7b 1b 7d 3f 9f 2a 80 3f
       1.0095608 0.98210144 0.98870057 1.0013007
000190 fe 39 80 3f 64 74 7e 3f 02 22 80 3f 0d fb 7f 3f
       1.0017698 0.9939635 1.0010378 0.9999245
0001a0 79 5d 80 3f 38 66 7e 3f c7 dd 80 3f a1 03 7f 3f
       1.0028526 0.99374723 1.0067681 0.9961491
0001b0 a1 d4 7c 3f 24 8a 80 3f 29 c1 7d 3f 9e c4 7e 3f
       0.98761946 1.0042157 0.99122864 0.99518764
0001c0 8b f4 7d 3f af 23 81 3f 71 dc 7d 3f 07 e1 80 3f
       0.9920127 1.0089015 0.9916449 1.0068673
0001d0 70 33 81 3f fe 9b 7c 3f ee a5 7f 3f c6 7b 80 3f
       1.0093822 0.98675525 0.99862564 1.0037773
0001e0 cc e9 7d 3f 49 12 7f 3f db ec 7e 3f e5 a1 7e 3f
       0.9918487 0.99637276 0.9958016 0.9946578
0001f0 d4 3a 7f 3f 94 ae 81 3f 30 f3 7d 3f 25 e2 80 3f
       0.9969914 1.0131402 0.991992 1.0069014
000200 f5 b5 7b 3f 47 99 7f 3f 08 2f 80 3f 32 26 80 3f
       0.9832452 0.9984326 1.0014353 1.0011656
000210 71 ff 82 3f 5b b8 80 3f 11 20 81 3f 4d 0b 80 3f
       1.0234205 1.0056261 1.0087911 1.0003449
000220 58 d6 7d 3f 1f 34 7c 3f 5e 12 82 3f 8b 20 7f 3f
       0.9915519 0.9851703 1.0161855 0.9965903
000230 58 6a 81 3f 6d bb 80 3f 77 a0 7d 3f 7b 6c 7e 3f
       1.0110579 1.0057198 0.99072975 0.9938428
000240 e2 63 80 3f ff c1 7c 3f 07 0e 81 3f 8f 5c 81 3f
       1.0030482 0.98733515 1.0082406 1.0106372
000250 ef 37 80 3f a0 e9 80 3f 07 0f 7d 3f 56 7b 80 3f
       1.001707 1.0071297 0.98851055 1.0037639
000260 8b 01 81 3f cb 8b 7e 3f 35 2f 7f 3f b4 1d 81 3f
       1.0078596 0.9943206 0.9968141 1.008719
000270 ab 0d 81 3f 9f 46 7f 3f 14 90 80 3f 20 4e 81 3f
       1.0082296 0.99717134 1.0043969 1.0101967
000280 d7 30 7e 3f 97 29 80 3f 79 93 80 3f 3a 08 80 3f
       0.99293274 1.0012692 1.0045005 1.000251
000290 9e 50 7e 3f fd ed 80 3f 1e 31 7f 3f 8d 1a 80 3f
       0.9934176 1.0072628 0.9968432 1.0008103
0002a0 14 19 81 3f 5a e3 7d 3f 43 50 80 3f 52 9b 7e 3f
       1.0085778 0.99175036 1.0024494 0.9945575
0002b0 6e 62 80 3f 71 60 80 3f 1a 12 80 3f 33 bc 7f 3f
       1.0030038 1.0029432 1.0005524 0.99896544
0002c0 3d e2 80 3f 82 0d 80 3f 90 36 7f 3f 04 9e 7f 3f
       1.0069042 1.0004122 0.9969263 0.9985049
0002d0 1c 33 7d 3f f5 66 7f 3f 0d 4e 7c 3f 1a 2e 81 3f
       0.9890611 0.99766475 0.98556596 1.0092194
0002e0 ea 02 7e 3f 4b 55 7f 3f 9c 45 80 3f b2 04 7d 3f
       0.99223197 0.9973952 1.0021243 0.9883529
0002f0 41 ab 81 3f 83 50 7e 3f 8b 2d 80 3f b4 f4 7f 3f
       1.0130388 0.993416 1.0013899 0.9998276
000300 68 92 80 3f c6 0f 80 3f 21 61 7c 3f 6d 63 7e 3f
       1.004468 1.0004814 0.98585707 0.9937046
000310 47 22 7e 3f c7 e4 7b 3f a2 d9 81 3f fe 14 80 3f
       0.99271053 0.9839596 1.0144541 1.0006406
000320 7f 04 81 3f 52 5f 7f 3f bc 1c 80 3f d5 94 7f 3f
       1.0079497 0.9975482 1.0008769 0.99836475
000330 0c 87 7d 3f 74 31 7c 3f a8 df 7f 3f fa f0 7e 3f
       0.9903419 0.9851296 0.9995065 0.9958645
000340 90 9c 81 3f 68 62 7e 3f 5d 98 80 3f a0 5f 81 3f
       1.0125904 0.99368906 1.0046498 1.0107307
000350 6a 27 80 3f 5e 4c 7d 3f 36 12 80 3f fa 86 81 3f
       1.0012028 0.9894465 1.0005558 1.0119317
000360 0d 6a 7e 3f 9e ad 7e 3f 01 08 82 3f 66 4a 7c 3f
       0.9938057 0.9948367 1.0158693 0.98551023
000370 13 c1 7d 3f 49 28 80 3f 8f c6 7f 3f 65 cf 7f 3f
       0.9912273 1.0012294 0.9991235 0.99925834
000380 d2 80 80 3f 62 81 7d 3f 91 a0 81 3f 4c db 80 3f
       1.0039313 0.9902555 1.0127126 1.0066924
000390 36 f0 84 3f 8e 1f 80 3f 92 55 81 3f 00 02 80 3f
       1.0385807 1.000963 1.0104239 1.000061
0003a0 e2 73 7f 3f b9 13 80 3f 8e bb 80 3f ff e2 80 3f
       0.997862 1.0006019 1.0057237 1.0069274
0003b0 1d 77 7d 3f dd cc 7f 3f 85 5f 81 3f 5f e3 7e 3f
       0.9900988 0.9992197 1.0107275 0.9956569
0003c0 4b 2e 82 3f 00 a0 80 3f e3 3c 7e 3f b4 ab 80 3f
       1.0170377 1.0048828 0.99311656 1.00524
0003d0 60 37 80 3f c0 e2 7f 3f 93 60 7c 3f 21 3a 7d 3f
       1.0016899 0.9995537 0.9858486 0.9891682
0003e0 9c b4 7c 3f 7e a3 7c 3f 50 e3 80 3f a6 63 7e 3f
       0.9871309 0.9868697 1.006937 0.993708
0003f0 09 31 80 3f 51 4d 7f 3f 7d dc 80 3f df 94 7e 3f
       1.0014964 0.9972735 1.0067288 0.9944591

network.1.bias f4 [512]
000000 c9 55 35 bc e8 38 9d ba 86 8b 54 bc 70 01 6a 3c
       -0.011067816 -0.0011995109 -0.012972718 0.014282569
000010 ab f0 36 bb 6e 79 db bb c9 29 19 bc f5 14 f9 bb
       -0.0027914445 -0.006697825 -0.009348341 -0.007601375
000020 b2 2b 46 bc e9 0d cf bb b5 23 7d bc 20 be 6e ba
       -0.012095379 -0.006318797 -0.015450408 -0.00091073103
000030 af 0f 36 3c 38 4b 7e bc 37 9a 40 bc 36 26 2c bc
       0.011112138 -0.015520863 -0.011755518 -0.010507157
000040 18 75 0d 3b c2 c6 71 bb 48 69 f5 3b d3 d7 77 bc
       0.0021584686 -0.003689215 0.007489357 -0.01512714
000050 2a 5d c2 bc 1f ed 77 bc 3e 80 50 bc 09 53 35 bc
       -0.023726065 -0.015132218 -0.012725888 -0.01106716
000060 cd c9 a0 3b b4 d7 8e 3c 54 78 88 bc 65 17 77 ba
       0.004906869 0.01743684 -0.01665894 -0.00094257883
000070 fc 90 93 3c e6 9e ea bb d3 8f 71 bc 1e 42 a4 bc
       0.01801347 -0.0071600555 -0.014743763 -0.020051058
000080 83 b4 b3 3b 3f 29 a3 3b b6 a0 06 3c 0d 13 7e bc
       0.005484165 0.004979282 0.008217027 -0.015507472
000090 7f 19 de bb 11 c4 76 bc ec 67 ec 3b d1 09 fd ba
       -0.0067779417 -0.015061394 0.007214537 -0.0019305294
0000a0 d4 58 4f bc 84 b0 f7 bc c8 b8 45 3b c5 ac 4b bc
       -0.012655456 -0.030235536 0.0030169953 -0.012431328
0000b0 59 5c 31 bc e4 5e e6 bb f5 07 38 bc d6 43 ae 3b
       -0.01082524 -0.007030355 -0.011232366 0.0053181453
0000c0 30 d9 81 bc f9 76 8b 3c 6a 46 ea bc 96 92 66 bb
       -0.015850633 0.017024504 -0.02859803 -0.0035182587
0000d0 b6 83 41 bc 5b bf e1 bc 61 27 a5 bb 07 96 f9 bb
       -0.0118111875 -0.027557066 -0.0050400947 -0.0076167616
0000e0 24 e4 e2 bb 08 af 5c 3c ce d9 05 bc ff f1 7f bc
       -0.006924169 0.013469465 -0.008169604 -0.015621661
0000f0 66 c0 b2 bc 6c 3a 3b 3d f0 dd 52 3b 4a 73 87 bc
       -0.021820258 0.045710012 0.0032175742 -0.016534466
000100 e0 0a 43 b9 fe ef ee bc d5 67 d2 bb 2e 99 0f bc
       -0.000186007 -0.029167172 -0.006421069 -0.008764548
000110 f7 f8 c2 39 5d 07 64 ba 25 26 33 3c 43 b0 03 bc
       0.00037188057 -0.0008698607 0.010934387 -0.00803763
000120 3c f3 0c bc 8e ae 4c 3c aa 73 0a 3c 71 8e 77 bb
       -0.0086029135 0.012492789 0.008450428 -0.003777411
000130 f2 1f 6a bc ca 67 bc b9 e8 65 1a 3b 33 1b e9 bc
       -0.014289843 -0.00035935483 0.0023559276 -0.028455352
000140 b5 fc 12 3a ae 5e 06 3b 07 dc bf 3a 42 7b 00 bd
       0.0005607114 0.002050321 0.0014637717 -0.031367548
000150 50 8b 96 bc 38 76 a2 3a 5d 06 51 bc a3 4d d3 3c
       -0.018376976 0.0012394851 -0.012757865 0.025793856
000160 11 55 81 bc b1 9c c2 bc ff 8e 0f bc 8e 66 17 bb
       -0.015787633 -0.023756357 -0.00876212 -0.00231019
000170 6e 6c ad 3c 4f 67 76 bc 2d b9 0c bc 73 c3 02 bb
       0.021169867 -0.015039279 -0.008589071 -0.0019952923
000180 bf bc 0c bb ff 42 04 bd bb 5f 5c bc 94 e6 e3 bb
       -0.0021474806 -0.032290455 -0.013450558 -0.0069549773
000190 b2 8d e3 bb b1 5b a5 bc bf f2 12 bd 92 54 ef bc
       -0.0069443816 -0.020185323 -0.035876032 -0.029215131
0001a0 33 7f b0 bc 9e 7b 2e bc 96 3d 0c 3c 29 cc 43 bb
       -0.021545028 -0.01064959 0.008559605 -0.0029876328
0001b0 42 66 88 bc 0e 2b bf bc 57 9c 88 bb a4 7e 84 bc
       -0.016650323 -0.02333596 -0.004169028 -0.016173668
0001c0 da e9 0e bc 7f 1a 60 bc c8 61 a5 bb d2 cb ce bc
       -0.008722747 -0.013678192 -0.005047057 -0.025243673
0001d0 66 08 17 bc 9b 6e ae bc 89 e4 34 bb 92 06 bf ba
       -0.009218311 -0.021292975 -0.0027602038 -0.0014574102
0001e0 da 27 93 3c db 9a 50 ba d7 e6 10 bd 1a 89 52 3b
       0.017963339 -0.00079576456 -0.035376396 0.0032125176
0001f0 a3 da c8 bb 5c fc 32 bc 93 97 0a 3c 4c 42 a3 bc
       -0.006129579 -0.010924425 0.00845899 -0.019929074
000200 ca 5d 84 bb cf 0e 68 bc 23 8d 22 3c e0 67 b7 bb
       -0.004039501 -0.014163687 0.009921345 -0.0055970997
000210 98 b4 4c bb 63 a1 e4 ba fe 29 7e 3c 62 1a bb 3b
       -0.0031235572 -0.0017443117 0.015512941 0.005709932
000220 b0 62 48 bc 70 58 85 bc ac fd 3a bc 36 a1 01 bc
       -0.01223056 -0.016277522 -0.011413019 -0.007911971
000230 91 59 c8 3a 72 6b ca bb a0 00 91 bc f2 4f 91 ba
       0.0015285482 -0.0061773593 -0.017700493 -0.0011086448
000240 b1 46 76 3b 53 ed bb bc e9 f6 19 3c 50 bb a1 3b
       0.0037578756 -0.022940313 0.009397247 0.0049356595
000250 57 9b 83 bc fa 49 d2 3a bc 6d 80 bc de b9 24 3b
       -0.016065283 0.0016043775 -0.015677325 0.00251352
000260 8c 4a c6 3c ba b7 17 bc 17 1b 35 b9 dc b9 9f 3b
       0.024205469 -0.009260112 -0.00017271597 0.004874451
000270 10 86 dd 3c 12 14 59 3c 37 59 81 3b 55 8b 71 3c
       0.027041465 0.013249414 0.003947403 0.014742692
000280 8c 13 ea 3b 71 b2 ac bc 1d 79 5d bc f8 79 02 3c
       0.0071434435 -0.021081181 -0.013517645 0.00796365
000290 78 7f 90 3b 2c 74 5a ba 46 6f 9e bb 3e 73 a1 bc
       0.0044097267 -0.0008333351 -0.004835042 -0.019708272
0002a0 c7 f8 7b 3c f7 48 c1 bc 79 16 ba bb 89 8f a3 bc
       0.015379137 -0.023594363 -0.0056789485 -0.019965904
0002b0 dc 97 75 bc 51 d3 05 3d 39 0c e5 3b 56 20 a0 bb
       -0.014989819 0.03267223 0.0069899824 -0.0048866672
0002c0 1f e9 e5 bc fc 41 8c bc 3c b7 2d bc 25 45 17 bc
       -0.028065262 -0.017121308 -0.0106027685 -0.009232794
0002d0 9d 64 07 bd 10 0a d0 bb a9 15 53 bc e9 fa ea bc
       -0.033054937 -0.006348856 -0.012883582 -0.028684096
0002e0 f6 6f e3 b9 08 ba e0 bc bb 59 85 3c 03 12 ba bc
       -0.0004338023 -0.027432457 0.016278138 -0.022713667
0002f0 9b fb 9b ba f2 f7 48 bc a0 9e e0 ba 2c dc 44 3c
       -0.0011900546 -0.012266146 -0.0017137118 0.012015384
000300 f2 41 83 b9 9e ba c2 bc 08 c3 3b bc 60 b6 4d bc
       -0.000250354 -0.023770627 -0.011460073 -0.012555689
000310 60 c9 41 3c 20 1e b2 bc 8f 09 55 3c 42 4f d4 3b
       0.011827797 -0.02174288 0.013002767 0.006479175
000320 6c d5 95 bc 59 bc ba bc 9b 76 88 3b e3 44 9f bb
       -0.018290244 -0.02279489 0.0041645295 -0.004860507
000330 4a b2 46 bc 1f d2 87 bc b0 d3 cc bc 1f 6a b3 3c
       -0.012127468 -0.016579686 -0.025003284 0.021901188
000340 69 28 32 3a 00 61 75 bc 03 37 40 bc 7e c9 f9 3b
       0.0006796183 -0.01497674 -0.011731866 0.0076228967
000350 f3 83 ae bb b7 8d d2 bb 7d 39 f3 bb 73 cf ad 39
       -0.005325788 -0.006425585 -0.0074226246 0.00033151693
000360 04 43 ec bc b5 56 16 bc 39 07 b0 b9 74 84 80 bc
       -0.02884055 -0.009175946 -0.00033574717 -0.015688159
000370 19 c2 30 bc 8a 12 46 bb 54 db 9f bc 8b f3 9c bb
       -0.010788464 -0.0030223452 -0.019513763 -0.004789775
000380 c6 3e f1 3c e2 9d 76 bc 72 c0 ae 3c f4 e3 97 3b
       0.029448878 -0.015052291 0.021332 0.0046353284
000390 7c 5f 0d 3d f7 d2 6e bb 32 50 54 bc 5c c9 d6 3a
       0.03451489 -0.0036441663 -0.012958573 0.0016386914
0003a0 4c 2a fb bb 77 c4 cd bb 59 2b b2 ba 81 2b fa bc
       -0.0076649543 -0.006279524 -0.0013593241 -0.030538322
0003b0 57 0d b5 38 d3 c2 29 bc 31 e2 ba bc 86 23 ed bc
       8.633237e-05 -0.010361391 -0.022812935 -0.028947603
0003c0 3d 59 29 3d fd 61 3c bc 4d 9e b6 bc 69 9f 86 bb
       0.04134487 -0.011497972 -0.02229228 -0.0041083586
0003d0 ef 57 0b bd 51 29 e1 bb 6a 7d 19 bc 7f 42 2f bc
       -0.034019407 -0.0068713804 -0.00936828 -0.010697006
0003e0 2d 98 23 bc 19 24 02 3c b7 66 33 bc 96 7f d7 3c
       -0.009985012 0.007943177 -0.010949782 0.026305955
0003f0 80 b4 95 bc ff 2f 18 bc 1c 8c 87 bb ce 18 60 bc
       -0.018274546 -0.009288787 -0.0041365754 -0.013677789

network.1.running_mean f4 [512]
000000 6d cd 66 be 4a 18 a0 3e d4 9f 97 3e fe f8 92 3d
       -0.22539301 0.3126853 0.29614127 0.07176398
000010 6f a1 52 be ba 01 c2 3d 46 41 9b 3a d5 30 d1 3e
       -0.20569395 0.094729856 0.0011845015 0.40857568
000020 6a d8 87 3d f4 3c 0d 3d 2b 0a f9 3c bb 90 73 3e
       0.066330746 0.034481958 0.030400356 0.23785679
000030 22 d3 b6 bb 0f 35 c4 3e 37 82 6e 3e bc ed ac be
       -0.005579368 0.3832173 0.2329186 -0.33775127
000040 cc c4 8c b8 e3 5b c2 be d0 e0 af be 66 4a b2 3d
       -6.7123765e-05 -0.3796073 -0.34351206 0.087055966
000050 45 01 ce 3d c8 6f 20 bd e1 a0 d9 3e 61 e4 75 be
       0.10058836 -0.039169103 0.42505553 -0.24012901
000060 25 d3 3f be 5e 42 92 bd b7 58 31 3b d0 12 1b bd
       -0.18732889 -0.07141565 0.0027060935 -0.037859738
000070 5a 37 ce 3e 42 50 41 be 74 a4 6f be 4a 71 1c 3d
       0.40276605 -0.18878272 -0.23402578 0.03819398
000080 be de ab 3e 1c 1b d9 3d 59 ca 76 3e 48 76 b1 3d
       0.33568376 0.10600874 0.24100627 0.086651385
000090 c7 43 c3 3e 88 7c 89 3e cd d0 a3 3e b5 8b 75 bd
       0.38137648 0.26852822 0.3199524 -0.059947688
0000a0 86 89 bd be 5d 29 59 be c8 fb 1b 3e ad a4 a0 3e
       -0.37018985 -0.21207185 0.15232766 0.31375638
0000b0 f9 ce 32 be b8 77 bd 3e 61 8a 83 3d af 88 e9 3a
       -0.17461766 0.370054 0.06422878 0.0017817224
0000c0 ac 97 8e 3c 10 a0 a1 bd bf 55 d6 3e 01 99 9d 3c
       0.017406307 -0.078918576 0.41862294 0.019237997
0000d0 e9 35 8c 3e 8e 32 c1 be 6d fd 6b be 5a b3 4d 3d
       0.2738488 -0.37733883 -0.23045893 0.05021987
0000e0 e1 cc b6 3e 8a 0d 5a 3e bc 61 ae 3d 53 3c e2 be
       0.35703185 0.21294227 0.08514735 -0.4418665
0000f0 be a9 0a 3c d2 3e 97 be 3f 8d c3 be 14 88 7a 3d
       0.008463321 -0.29540116 -0.381937 0.06116493
000100 ff e1 90 be 0f c8 cf 3e dc 17 79 be ca 85 13 3e
       -0.2829742 0.4058232 -0.24325508 0.14406505
000110 1e 5e 86 3e 3f 06 b2 be 70 52 6a 3e 25 7a 75 bd
       0.2624368 -0.3477039 0.2288301 -0.05993094
000120 e0 53 6d 3e 8c 87 dd 3e d9 32 43 be ee 50 46 be
       0.23176527 0.43267477 -0.19062366 -0.1936681
000130 49 e6 b5 3e 40 c2 4c 3d 2d 0b 37 bd 7f ce ad 3e
       0.35527256 0.04998994 -0.044688392 0.33946607
000140 89 41 5d be da c8 b4 bc cf 46 9d 3e 6a ee 32 3e
       -0.21607031 -0.02206843 0.30718085 0.1747376
000150 54 0e 94 be 53 0a ee 3d d8 98 ae be 16 a1 78 be
       -0.28917181 0.11623063 -0.34100986 -0.242802
000160 8b 37 93 3e b6 1d f4 bd a2 54 69 be ab 54 02 3d
       0.28753313 -0.119197294 -0.22786191 0.031819027
000170 41 b8 df 3d 3f 71 8e be f7 59 9a be fe c2 dd be
       0.109238155 -0.27820775 -0.30146763 -0.4331283
000180 ca ed ec 3d 5e b4 93 be 4f c0 0b 3d fd 53 cc bd
       0.11568792 -0.28848547 0.034118947 -0.09976957
000190 b4 a2 95 be f5 33 12 be 77 fb af be 55 52 72 be
       -0.29225695 -0.14277633 -0.3437154 -0.2366422
0001a0 e9 c1 63 bc 43 da c3 be 9a c3 c8 be fe 79 ab 3e
       -0.013901212 -0.38252458 -0.39211732 0.3349151
0001b0 18 f0 2b 3d e6 99 4a be 91 a9 75 bc 83 d0 a9 3e
       0.041977018 -0.1978527 -0.014994041 0.33166894
0001c0 ea 03 bf be ea d4 72 be 66 8a a5 be 65 84 05 bd
       -0.37307674 -0.23714033 -0.32332152 -0.032596964
0001d0 0c a2 7b bc 58 79 b2 be c8 eb 9e 3e 67 e6 af be
       -0.015358459 -0.34858203 0.31039262 -0.3435547
0001e0 b3 c3 d5 3e 4e a0 9d be 65 27 7b bd df 63 ab 3d
       0.4175087 -0.30786365 -0.061316866 0.08368658
0001f0 7c 91 4b be b8 cd d2 3e 08 b1 9d be 22 10 cb bc
       -0.19879717 0.41172576 -0.30799127 -0.024787966
000200 d8 2c a8 be 3d 4f fe 3d f3 3c c3 3e 1f 40 d4 3e
       -0.32846713 0.12417457 0.38132438 0.4145517
000210 58 ff 58 3d 61 63 65 be c5 83 de 3e 18 6c 08 3d
       0.05297789 -0.22401191 0.43459907 0.03330621
000220 41 f0 9a 3e dd df 6d be 1e 88 54 be 8d 1a be be
       0.30261424 -0.23229928 -0.2075505 -0.37129632
000230 fa a0 d2 3e 95 ed 97 3d b0 65 a4 be 9d 81 1d 3d
       0.4113844 0.07418362 -0.3210883 0.038453687
000240 f1 6a 44 be 0b 8f b7 3c 18 1b 18 3e 8a 7f 63 be
       -0.1918142 0.022407075 0.14854085 -0.22216621
000250 b7 da 9f 3d d1 a8 90 be 3d 92 b0 3d 32 14 dd be
       0.078053884 -0.28253797 0.08621643 -0.4317947
000260 25 c8 91 3d 05 60 e3 3e 16 df d2 3e 11 09 27 3e
       0.07118253 0.44409195 0.41185826 0.16312052
000270 92 6b a8 3e f8 af de 3e 59 f4 01 3e 81 bc 18 3e
       0.3289457 0.43493629 0.12690867 0.14915659
000280 95 2c 6e 3d 47 d8 ca 3e 20 d4 c4 3e 1d 4f 57 be
       0.058147985 0.39618132 0.3844309 -0.21026273
000290 b6 e1 96 bc 6c 9c 66 be 76 48 24 3e a1 f1 dd be
       -0.018418174 -0.22520608 0.16043267 -0.4334841
0002a0 93 07 22 3e 53 84 fb bd e8 00 26 3e 98 f4 0e 3e
       0.15823202 -0.12281098 0.16211283 0.13960493
0002b0 d8 c7 63 be 12 80 6d 3e 9c 4b 42 3e 81 a3 c2 be
       -0.22244203 0.23193386 0.18974155 -0.3801537
0002c0 4c 82 e4 3e f5 1f c5 3e 1d 6b 8e 3e f4 7a 39 bd
       0.4463066 0.38500944 0.27816096 -0.045283273
0002d0 47 31 22 3e 3a c3 77 be 51 96 1b be 43 07 58 3e
       0.1583911 -0.24195567 -0.1519406 0.2109652
0002e0 0e 18 4c 3e dd 64 35 3e 0b 4c da be b4 9f bd 3e
       0.19931051 0.17714258 -0.4263614 0.37035906
0002f0 1a 43 3f be 06 22 c6 3e 2f b0 bc 3e 5f 86 29 3e
       -0.18677941 0.38697833 0.36853167 0.16555165
000300 d5 1a e4 3e 8d 7d 83 3e 78 35 86 3e e5 8b 1b be
       0.4455172 0.25681725 0.26212668 -0.15190084
000310 df 3c d4 3e f3 66 f0 3d a9 36 87 3e b1 6a cf bd
       0.4145269 0.11738386 0.2640889 -0.10127772
000320 77 ca a5 3e ef 18 cb 3e 7c 7f af be 6d a9 bb 3e
       0.3238103 0.3966746 -0.3427695 0.366527
000330 7f 50 97 be ba ac 9d be 31 4b bf be c2 54 04 3e
       -0.295536 -0.30795842 -0.37362054 0.12922958
000340 53 dc ab be a5 28 2c be cc 87 66 be 48 b4 f4 3d
       -0.33566532 -0.1681238 -0.2251274 0.119484484
000350 5b c1 e0 be d6 d7 51 be 92 18 51 3b cc 0d 25 3d
       -0.4389752 -0.20492491 0.0031905514 0.04029636
000360 99 bf 4e be d6 1e 24 3e cc 1d 97 be 12 e9 c1 be
       -0.20190276 0.16027388 -0.2951492 -0.3787313
000370 65 7b 82 bd e2 68 77 be f9 62 90 3e d3 7e 9c be
       -0.06371192 -0.24161103 0.2820051 -0.3056551
000380 b4 86 19 bd f3 13 3e 3e 31 74 c8 be e4 28 b1 3e
       -0.03748198 0.18562298 -0.39151147 0.3460151
000390 b1 46 50 be 62 27 f9 bd bd 1d 8c be 17 ad 2a be
       -0.20339467 -0.12165715 -0.27366439 -0.16667591
0003a0 8f 8e 30 be 17 c4 cb be 94 86 1c 3e e6 d3 c5 ba
       -0.17241882 -0.39798042 0.15285712 -0.0015093058
0003b0 64 ef df 3e bb 81 9a 3e b9 49 c7 3e cd ab 06 3e
       0.43737328 0.30177101 0.38923433 0.13151474
0003c0 1a f0 70 3e 35 8f d6 3e 1a fc bb 3e a4 ee af be
       0.23529091 0.41906133 0.36715776 -0.34361756
0003d0 7e 42 cd bd fe d3 dc be 82 cc 89 3c 5f b7 21 be
       -0.10022448 -0.43130487 0.01682115 -0.15792607
0003e0 a6 b8 c6 3e 29 dd 90 3d b9 0c a1 3b d2 ba a5 be
       0.3881275 0.07073433 0.0049148467 -0.32369095
0003f0 8c bc b3 be b6 03 90 3d 9a 99 63 be 6c 53 52 be
       -0.35104787 0.07031958 -0.22226563 -0.20539635

network.1.running_var f4 [512]
000000 41 81 89 3f 61 c0 41 3e 2a 9d 1f 3f 47 84 fe 3c
       1.074257 0.18921043 0.6234919 0.031068934
000010 43 6e 1b 3e 69 19 04 3f 25 75 46 3e 47 bb 9a 3e
       0.1517878 0.5160127 0.19380625 0.30221006
000020 9d a7 f5 3e 8d 9c 27 3e b5 e2 3e 3e 02 17 de 3e
       0.4797944 0.16368313 0.1864117 0.4337693
000030 ee 0f 5f 3e bf 70 d0 3e 39 2e 78 3e 36 3f 03 3f
       0.2178342 0.40711018 0.24236383 0.5126833
000040 8b f6 0b 3f b0 76 20 3e e2 f9 39 3e 90 8b f3 3e
       0.5467307 0.15670276 0.18161729 0.47567415
000050 5b c8 6e 3e 91 d5 bf 3f 19 0f 12 3e 66 fb 14 3f
       0.23318617 1.498705 0.14263572 0.58196104
000060 e3 0a ba 3e 8a c1 ce 3d aa 22 10 3f 2f b4 f6 3e
       0.3633643 0.100955084 0.56302893 0.48184344
000070 51 1e 35 3e 9e 6d 40 3f c4 ca 89 3e 3c 27 d0 3d
       0.17687346 0.7516726 0.2691251 0.10163733
000080 f4 16 4c 3d f5 25 c8 3d c0 30 37 3e 3a 0d a4 3d
       0.049826577 0.09772865 0.1788969 0.08010335
000090 88 33 b4 3d e9 c8 a1 3d b1 60 51 3e b5 76 0c 3c
       0.08798891 0.07899649 0.20447041 0.008573224
0000a0 67 7f 8c 3e c2 5f 31 3f 37 2e 99 3e 4f c5 d2 3e
       0.2744095 0.6928674 0.29918072 0.4116616
0000b0 c6 43 05 3f 17 a1 be 3e 5c ca cb 3e 79 f6 3d 3f
       0.5205654 0.37232277 0.39802825 0.7420421
0000c0 1f 82 1b 3e fc b7 12 3f 8f c9 f9 3e 93 30 92 3d
       0.15186356 0.5731199 0.4878659 0.07138171
0000d0 70 ed 5f 3e e3 17 57 3e ef 45 49 3f 23 c5 07 3e
       0.21867919 0.21005206 0.78622335 0.13258795
0000e0 5a 27 b4 3e 3a 01 74 3e 04 28 37 3f 3b d5 f4 3e
       0.35186273 0.23828593 0.71545434 0.47818932
0000f0 54 f3 c5 3e e9 84 5a 3d 7d 70 0e 3f 0f 5d d2 3e
       0.38662207 0.05334941 0.55640393 0.41086623
000100 4e 6b e3 3d 87 92 c0 3f 9c df 0f 3e 09 d8 9f 3e
       0.11104451 1.5044717 0.14050144 0.3121951
000110 d9 3d 42 3f 54 50 0d 3e 7f 19 15 3f aa e9 c4 3d
       0.7587562 0.13800174 0.5824203 0.096148804
000120 1d 94 98 3e af 80 98 3e 34 d3 11 3f ec da 51 3e
       0.298005 0.29785678 0.56962895 0.20493668
000130 ef cd a1 3e 06 19 0d 3e 36 7f 83 3e 92 95 54 3e
       0.31602427 0.13779077 0.25682992 0.20760182
000140 6d 04 a1 3d 3b 4a 90 3f fb 50 0c 3f 37 a9 ed 3e
       0.07862172 1.1272653 0.54811066 0.46418163
000150 af b6 fa 3d f2 11 53 3e 83 e2 83 3e ae 35 f1 3c
       0.122418754 0.20612314 0.25758752 0.029444542
000160 8e 6f f5 3e 1c 85 f6 3d fc 66 92 3e 09 f4 fe 3d
       0.47936672 0.12037107 0.28594196 0.1244889
000170 a5 b0 80 3d e3 37 71 3e 6f e0 f0 3e dc ec 17 3e
       0.06283692 0.23556475 0.4704623 0.14836448
000180 c3 4f 34 3e a1 c0 8b 3e a6 17 cc 3d 5d 25 04 3e
       0.17608552 0.27295402 0.09965448 0.12904878
000190 d0 66 93 3e 9f f6 4a 3e bc 8b f0 3e 7b 8a 5c 3e
       0.28789377 0.19820641 0.4698161 0.21537201
0001a0 13 90 b1 3e 87 cc 6f 3d 8f 5f a0 3e bd 4c 18 3f
       0.34680232 0.05854466 0.31322905 0.59492093
0001b0 ab a8 4f 3e a0 4e 22 3f 91 f3 cd 3d 67 0c 89 3e
       0.20279185 0.6340122 0.10056222 0.26767275
0001c0 4c 45 ab 3e cb c0 d1 3f 50 1d 01 3f b4 29 67 3e
       0.33451307 1.6386961 0.5043535 0.22574502
0001d0 94 da 85 3e f9 65 87 3d cf 5d 00 3f 63 71 d9 3d
       0.26143324 0.066112466 0.5014314 0.1061733
0001e0 f6 fb cc 3e 7e 53 c8 3e 46 73 3d 3e 30 30 06 3e
       0.4003598 0.391262 0.18501005 0.1310432
0001f0 b1 0d cb 3e 67 02 ef 3e 08 07 95 3d 84 c2 92 3f
       0.39658883 0.4668152 0.07276732 1.1465611
000200 3f 52 05 3e 69 59 e5 3d ee 39 a5 3e 74 33 2c 3e
       0.13019656 0.11198694 0.3227076 0.16816503
000210 36 ae a3 3d 83 24 96 3e 51 6e bf 3e d3 7a fa 3d
       0.079922125 0.2932473 0.37388852 0.12230458
000220 4b 1e 8b 3e d8 db bb 3e 51 06 80 3f 19 8b 0c 3f
       0.2717155 0.36691165 1.0001928 0.54899746
000230 8f 6f 4c 3e 00 28 88 3e be 3a 53 3e a1 f9 c6 3e
       0.19964431 0.26593018 0.20627877 0.38862327
000240 94 52 a4 3e ff 44 09 3f df 8d 5b 3e 6b 24 99 3e
       0.32094252 0.53620905 0.21440838 0.29910597
000250 9c de 1e 3f ad 60 23 3e 7d 8f 1f 3e 93 4f e4 3e
       0.62058425 0.15954848 0.1558208 0.4459196
000260 a5 98 46 3f 91 b6 23 3e 85 f4 1e 3e 05 67 03 3e
       0.7757667 0.15987612 0.15522964 0.12832268
000270 de 09 d3 3c 60 97 9f 3e 89 f1 10 3e 68 4b 6d 3f
       0.025761541 0.31170177 0.14154638 0.92693186
000280 0f 43 5c 3e ef ae d9 3d 3b e8 f6 3d 1e 57 8f 3e
       0.21509956 0.10629069 0.12056013 0.27996153
000290 c6 d2 a3 3e a0 e4 8b 3e 53 9a 08 3f 18 b3 54 3d
       0.31996745 0.27322865 0.5336048 0.05192861
0002a0 30 3a 5f 3f 3b 61 19 3e 64 b6 73 3e 3a 15 a7 3f
       0.8719816 0.14978497 0.23800045 1.3053353
0002b0 33 a1 1f 3e 26 92 20 3f 11 52 7b 3e 05 9e 33 3e
       0.15588836 0.62723005 0.24543025 0.17540748
0002c0 17 38 11 3f 48 f8 36 3e 41 95 da 3d 9c 49 1e 3e
       0.5672621 0.1786815 0.10672999 0.15457767
0002d0 05 f5 39 3f 46 5b e0 3d 97 fd 24 3f b4 4f dd 3d
       0.72639495 0.10954909 0.6444945 0.10806218
0002e0 db 4f 32 3e 1e f5 32 3e 74 72 7d 3e 44 64 f3 3d
       0.17413275 0.17476317 0.24750692 0.118843585
0002f0 18 c8 51 3f 78 9c 0d 3f c8 25 d7 3e 33 28 39 3e
       0.81945944 0.5531688 0.42021012 0.18081741
000300 52 a8 00 3f 99 99 ae 3e e4 0b 49 3e 84 52 2e 3f
       0.50256836 0.3410156 0.19633442 0.6809466
000310 d1 ac 55 3e 81 c0 49 3d 45 ee 9b 3d 75 cd 8f 3e
       0.20866705 0.04925585 0.07613806 0.2808644
000320 5a 2f 04 3e 92 0d d9 3e fc c2 30 3e 23 f2 b5 3e
       0.12908688 0.42393166 0.1726188 0.35536298
000330 df ac 68 3f ec e8 80 3e 6d 10 4d 3e a1 45 b0 3e
       0.9088878 0.25177705 0.20025797 0.34428123
000340 12 21 03 3e 51 19 47 3d 22 e8 47 3e a7 08 af 3e
       0.12805584 0.048608128 0.19522145 0.3418629
000350 e6 89 be 3e a4 59 2a 3f 46 1f 16 3f 69 e4 19 3e
       0.37214583 0.6654303 0.5864147 0.15028538
000360 56 f1 4b 3f fc 5d eb 3e 6e 5d 9d 3e 61 1b f9 3e
       0.79665124 0.45970142 0.30735344 0.486537
000370 8e 68 65 3e 22 d5 2c 3e 8f 16 fa 3d e3 88 d8 3e
       0.22403166 0.16878179 0.12211334 0.42291936
000380 fe 30 3e 3f 06 0f c5 3e 00 1d 9c 3e 7b 07 96 3e
       0.74293506 0.38488024 0.30490875 0.29302582
000390 0a 33 8e 3d cb 0c 03 3e e3 e2 27 3e 66 4b 84 3e
       0.06943329 0.12797849 0.16395144 0.25838774
0003a0 a7 39 13 3f 8b cd b5 3d 0c 86 38 3e 5a d8 4d 3f
       0.57509845 0.08877095 0.18019885 0.8040825
0003b0 e7 2a a2 3e 35 07 9c 3d f7 87 4d 3e 37 05 01 3f
       0.31673357 0.07618562 0.20071398 0.5039858
0003c0 48 ee b6 3c ad e4 0e 3e 0f a2 ce 3e 13 89 54 3f
       0.022330418 0.1395442 0.40358016 0.8302166
0003d0 73 a1 a6 3e 78 b6 97 3e 27 b9 de 3e f3 0e 84 3e
       0.3254505 0.296314 0.43500635 0.25792655
0003e0 66 01 5b 3e 3a e2 99 3e 78 db 95 3e ce 5e 96 3e
       0.21387252 0.3005541 0.29269004 0.29369205
0003f0 d7 45 e4 3d 12 2e ef 3d 98 81 8b 3e 49 db 40 3f
       0.111461334 0.11678709 0.2724731 0.753346

network.4.weight f4 [256, 512]
000000 24 18 d1 bb d7 7f 13 3c 49 e3 58 bc c6 a5 51 bd
       -0.0063810516 0.009002647 -0.013237783 -0.051183484
000010 23 72 1a ba 72 fb c4 3c 7e 79 c6 39 a4 ba 95 bc
       -0.00058916415 0.02404568 0.00037856022 -0.018277474
000020 8e e4 1d 3c 5f b6 0b 3c bf 70 67 bc dd 42 e6 bc
       0.009637011 0.008527367 -0.014126002 -0.028108055
000030 b1 45 01 bd 49 89 42 bc fd 50 56 3c 46 62 e7 3c
       -0.031560604 -0.011873552 0.013080833 0.028245103
000040 ab 5e d5 bb ed 80 9c 3c ec 1a 02 3d 8d 64 0e bd
       -0.0065115294 0.019104445 0.031763956 -0.03476386
000050 bb ea a3 bc af 5a dc 3c eb 68 ed 3c 57 38 24 3c
       -0.02000939 0.02689871 0.028980693 0.010023198
000060 15 13 21 bd ef 68 24 3d 17 4c fc bc da 2c d9 3c
       -0.03932484 0.040139135 -0.030798001 0.026510645
000070 fd 08 26 bb 92 71 76 3c d7 9b 5c bd ce 9e 9e bc
       -0.0025334947 0.015041726 -0.053859558 -0.019362833
000080 f8 73 9f 3c cd 66 f0 3c fd fd 63 bc 0e e5 2e 3d
       0.019464478 0.029345894 -0.013915536 0.042698912
000090 48 9a 73 38 71 00 b1 bc 93 7a 36 bc 13 36 40 3c
       5.80794e-05 -0.021606656 -0.011137622 0.011731642
0000a0 89 be 49 bc 9b 4a 8a 3c 1e f2 ac bc 20 01 99 bb
       -0.0123134935 0.016881278 -0.021111544 -0.0046693236
0000b0 41 6c 4e bd 0b 12 07 3d 55 e0 f9 bb 9a 45 1a bd
       -0.050396208 0.03297619 -0.0076256194 -0.037664033
0000c0 88 fd 29 bb 8f ce 1b bc 1c 77 02 3c 94 e6 7b 3b
       -0.002593847 -0.009509697 0.007962968 0.0038436996
0000d0 ba b6 b5 3c 1f 6f 28 bc 95 d1 82 bc 7e f1 ee b9
       0.022181857 -0.0102804 -0.015969077 -0.00045574823
0000e0 45 40 86 3b 1c 95 eb 3c c4 ae fe bb 74 59 03 3d
       0.004097017 0.028757624 -0.0077722985 0.03206773
0000f0 04 93 09 3d 00 be d4 bc 39 ba cd 3b 47 74 91 bc
       0.03358747 -0.025969505 0.006278303 -0.01775564
000100 ff 25 b0 3c 89 40 7a bc 2b a7 2a 3c 35 17 bd bb
       0.021502493 -0.015274175 0.0104158325 -0.0057705888
000110 73 29 06 bd 72 a3 12 bd 6d 2a 0a bd 14 5c 87 bc
       -0.032754373 -0.035800405 -0.033731867 -0.016523398
000120 89 b0 dd 3b ee 08 13 ba 3c 45 1d 3d 93 78 2f bd
       0.0067654294 -0.00056089356 0.038396105 -0.042839598
000130 a7 64 e2 3b 8e ae ff bc 1a be f1 bb 52 59 4f 3c
       0.0069089714 -0.031211164 -0.007377398 0.012655573
000140 e8 9b 0f bd d2 c3 17 3d fd 01 9c bc 5f 4e 13 3d
       -0.035060793 0.037051983 -0.019043917 0.035963412
000150 73 0a 83 3a 52 1b f0 3c 87 ae 41 3d c2 8f 7c bc
       0.0009997621 0.029309902 0.047285583 -0.015415134
000160 86 4e 96 ba 1e 1e c1 3c 19 cf 2a bd 2b 96 14 3d
       -0.0011467494 0.023573931 -0.04170141 0.036276024
000170 4e ef 16 bd 32 f0 0b 3d 1d 6b b8 bc e2 40 b8 bc
       -0.036849312 0.034164615 -0.022512013 -0.022491876
000180 04 f5 53 3d d5 5d 64 bc e4 fd 29 3d 69 21 9d 3c
       0.051747337 -0.013938387 0.041501895 0.01918097
000190 5f e5 fd 3c 63 70 1f bd 02 3c 73 bb 7b f3 d5 bb
       0.030993162 -0.03892554 -0.0037114625 -0.0065292693
0001a0 2b ce bf 3c 8c 24 cc bc 32 cb b5 3c 39 dc 4f bc
       0.023413738 -0.02491977 0.022191618 -0.0126867825
0001b0 e6 42 db bc 30 53 0c bd ad 7f 11 3d e2 33 85 bc
       -0.026765298 -0.03425902 0.03552215 -0.016260091
0001c0 d7 22 2e 3d b7 bd 09 3b 7e d9 9e 3b a2 b4 21 bc
       0.042513695 0.002101762 0.0048477044 -0.009869726
0001d0 58 05 4a bb 10 1b ad bc 75 e3 12 bd 0c 65 1c 3d
       -0.003082594 -0.021131068 -0.03586145 0.038182303
0001e0 39 5e f1 bc d9 9f a9 3c 62 8a 0c bc 04 58 8c 3c
       -0.029463874 0.020706104 -0.008577915 0.017131813
0001f0 52 50 04 3d 7c 4f 0b bd 5c 09 e9 3c a7 6d f7 ba
       0.032303162 -0.03401135 0.028446846 -0.0018877283
000200 48 76 fa bc 73 4d 23 3c 17 10 e8 3c 19 4f 31 3d
       -0.030573979 0.009967196 0.028327985 0.043288324
000210 41 43 97 bc 62 2b 36 3d bd 94 0a 3d 84 23 49 3d
       -0.018464686 0.044474967 0.033833254 0.049106136
000220 ae 81 0b 3d 44 c3 e3 bc de 5c 3c 3d d5 12 1e 3d
       0.03405922 -0.02780307 0.045987003 0.03859218
000230 74 ca aa bc 86 7e 81 bc e1 b9 af 3c 97 a2 2b 3d
       -0.02084849 -0.015807401 0.021450939 0.041903105
000240 9b e4 05 3d d0 43 f1 3c 1b 93 9b bc a0 19 7d bb
       0.03268872 0.02945128 -0.018991044 -0.003862001
000250 7f 6b c2 bb 10 55 78 3c 20 0b 75 3c b0 53 30 bd
       -0.0059332247 0.015156999 0.014956266 -0.04304856
000260 3b 5f 0f bc 15 55 1b bd 42 3b 24 bd c8 48 05 3d
       -0.008750732 -0.037922937 -0.040095575 0.032540113
000270 7d 67 94 bc dd 16 24 3c 03 29 56 bc 02 92 94 bc
       -0.018115753 0.010015217 -0.013071301 -0.018136028
000280 8b 4e 0d 3b 38 3c d7 3c c8 7f 5a 3a 4c c3 24 3d
       0.0021561708 0.026273832 0.0008335081 0.040225312
000290 61 8c fd 3c 90 2f 2b 3d ba 05 11 bd e7 4e 46 3a
       0.030950727 0.041793406 -0.035405852 0.0007564858
0002a0 10 4b 1b bd af 62 1e bb 53 7b 08 3b 10 51 5e 3c
       -0.037913382 -0.0024167707 0.002082546 0.0135691315
0002b0 c6 8f 14 3d 6d ea d5 3c e4 c3 ad bc b0 07 a9 bc
       0.036269926 0.02611276 -0.021211572 -0.020633548
0002c0 96 5d 2f 3d c4 92 ed 3b bb af c6 3a 16 58 8d bc
       0.04281386 0.007250162 0.0015158573 -0.017253917
0002d0 62 98 ca 3b d5 1b 52 3c ce 0a ec bc 19 69 bd 3c
       0.006182716 0.0128240185 -0.028813746 0.023121404
0002e0 87 da 0c 3c d9 3d 09 bd 49 bf 53 bb 1e 81 a6 bc
       0.008597023 -0.03350625 -0.003231006 -0.02032524
0002f0 43 87 b8 3b 8d a4 a7 bc 87 3d f2 3c 84 88 48 bd
       0.005631359 -0.020464206 0.029570354 -0.048958316
000300 4a d3 c0 bc a7 e0 c1 bc 32 aa aa 3c b6 95 79 3a
       -0.02353825 -0.023666693 0.020833109 0.0009520905
000310 40 d3 1e bc e4 16 e5 3c 8e c1 74 bd 16 b9 6a 3c
       -0.009693921 0.027965017 -0.0597549 0.0143263545
000320 94 9f 3b bc 38 bf 76 bc e7 e1 32 bd a1 fa 04 bd
       -0.011451621 -0.015060239 -0.04367247 -0.03246558
000330 bc 02 2e bd 32 fa ae 3c 47 c7 69 bc 47 5f e3 3c
       -0.042483076 0.021359537 -0.014268703 0.027755393
000340 a4 16 00 bd 73 1b 6b bc aa 3c 44 3c b5 d2 0c 3d
       -0.03127159 -0.014349806 0.011977354 0.034380633
000350 52 22 27 bc f3 6e f0 3c e5 61 a5 3c 1d 7c ca 3c
       -0.010201054 0.02934978 0.020188281 0.024717385
000360 8f 69 d3 3c 54 bf 99 3c b4 c9 96 bb b1 11 b8 bc
       0.02580717 0.01876799 -0.0046016816 -0.022469373
000370 97 e7 c5 3c 0a bc 03 3d cf e7 cd bb da 66 b8 3c
       0.024158282 0.03216175 -0.0062837373 0.022509981
000380 09 0e 13 bd 5c 66 e8 3c aa dc 9d bc 5d 9f 04 bd
       -0.035902057 0.028369121 -0.01927026 -0.032378543
000390 c1 3b f3 bc 9e fa f6 bc e8 20 d6 ba 0a fa ce bc
       -0.029691579 -0.0301488 -0.0016336711 -0.025265712
0003a0 56 c8 10 bc 0c 6f 56 3b 5d b5 e9 bc e1 17 d6 3b
       -0.008836826 0.0032719998 -0.028528864 0.0065336083
0003b0 16 17 8c bb 92 8b ec 3b cf 89 96 3c 35 49 01 bd
       -0.004275213 0.0072187865 0.01837626 -0.031563956
0003c0 32 e3 00 3d ce bb df 3b d0 5b 81 bc ac 39 69 bc
       0.03146667 0.006827808 -0.01579085 -0.014234941
0003d0 e4 e6 0a ba d3 17 5e 3b 8a aa fa bb d7 63 d6 bc
       -0.00052986876 0.0033888712 -0.0076497244 -0.026170654
0003e0 1d ec 74 3c 55 92 89 3b 6b a1 41 bd 1b 75 7c bb
       0.014948872 0.0041983523 -0.04727308 -0.0038521949
0003f0 f6 da 59 bc 46 82 6c bb e0 ed 8d bc 74 6e f4 bc
       -0.013296833 -0.0036088391 -0.017325342 -0.029837824
